models/cnn_lstm_model_imp1.pt (torch, 605204 bytes, 30 tensors)

conv2Dblock.0.module.weight f4 [16, 1, 3, 3]
0.11576681 -0.08735222 0.05435107 0.14779069 0.12310761 0.1667158 0.14114276 0.0025200662
0.09132722 -0.13029386 0.005091651 0.23054509 -0.18306744 -0.18773161 0.013919517 -0.101024225
-0.15743287 -0.0004927601 0.100114465 0.16036771 0.091767475 -0.17580275 -0.10138251 -0.24387766
-0.14569443 -0.108616285 -0.19238512 0.10174376 0.03981626 -0.1879664 -0.13355812 -0.12346192
-0.17830156 0.0695742 0.07724948 0.07760829 0.647441 0.4328341 -0.49532166 -0.5227651
0.40721512 0.60916233 -0.5106947 -0.7730936 0.21322644 -0.04103202 0.02453049 -0.12230695
-0.14365548 -0.01612136 -0.059485357 -0.13976033 -0.013330795 -0.12529188 0.49099422 -0.62187546
0.23450902 0.23087996 -0.4706145 0.1449415 0.36633888 -0.4661253 0.22078441 -0.44542882
-0.19192684 0.016617136 -0.41483524 -0.07841402 0.2884709 0.06501849 0.18139945 0.6164908
0.05760153 -0.03696108 0.106647775 0.106496505 0.10499157 0.14352499 0.12833062 0.02704055
0.10991407 0.41155636 0.14085434 -0.122958474 0.04767261 0.2690752 0.2654247 -0.43226686
-0.26287934 -0.009839809 0.11413219 0.4968252 0.51600355 -0.42413822 -0.4074009 -0.06820841
0.27713862 -0.11021487 -0.3451136 0.071835674 -0.32029572 -0.5260478 0.29658225 0.033971563
-0.5030943 0.75412655 0.09185571 -0.015137122 0.044763174 0.009218586 -0.11418156 -0.029261865
-0.06629707 -0.13868704 -0.07005587 -0.012865911 -0.10170772 -0.36493906 -0.49606845 -0.5058818
-0.07889641 -0.11214199 -0.1067847 0.6680036 0.75271523 0.3676525 -0.30600795 -0.37877098
-0.47044742 -0.34903032 -0.2362201 0.019978786 0.772747 0.46755168 0.44399834 -0.20143424
0.4249652 -0.5621833 -0.1172021 0.2880768 -0.24097188 0.029895412 0.7154174 -0.47425652
00000000: 2617 ed3d b9e5 b2bd 3a9f 5e3d 7156 173e
00000010: d81f fc3d 8cb7 2a3e ba87 103e b227 253b
00000020: c409 bb3d c16b 05be ddd7 a63b 0314 6c3e
00000030: 0876 3bbe b73c 40be b00e 643c cae5 cebd
00000040: 1536 21be 922c 01ba d008 cd3d 6f37 243e
00000050: 96f0 bb3d a305 34be a2a1 cfbd 11bb 79be
00000060: ec30 15be 3772 debd 9b00 45be 085f d03d
00000070: 6016 233d 447a 40be 76c3 08be 9ad9 fcbd
00000080: af94 36be eb7c 8e3d fa34 9e3d 18f1 9e3d
00000090: b2be 253f 6e9c dd3e cd9a fdbe efd3 05bf
000000a0: 807e d03e 10f2 1b3f e3bc 02bf 76e9 45bf
000000b0: 0858 5a3e 3111 28bd 2bf4 c83c 117c fabd
000000c0: 6c1a 13be f110 84bc eba6 73bd 551d 0fbe
000000d0: 6869 5abc 844c 00be 9863 fb3e 3b33 1fbf
000000e0: 2223 703e cc6b 6c3e 62f4 f0be 8b6b 143e
000000f0: c590 bb3e faa7 eebe 4f15 623e 3f0f e4be
00000100: 7888 44be a920 883c 4965 d4be 8897 a0bd
00000110: 75b2 933e 6a28 853d c7c0 393e 57d2 1d3f
00000120: 95ef 6b3d 8064 17bd 266a da3d d71a da3d
00000130: d205 d73d 37f8 123e 1a69 033e 2584 dd3c
00000140: a11a e13d 84b7 d23e 1f3c 103e a7d1 fbbd
00000150: 5b44 433d 3ac4 893e bfe5 873e 1552 ddbe
00000160: 1f98 86be 2637 21bc 23be e93d df5f fe3e
00000170: cf18 043f a528 d9be da96 d0be dab0 8bbd
00000180: 1de5 8d3e 55b8 e1bd bbb2 b0be 951e 933d
00000190: cdfd a3be 12ab 06bf a1d9 973e c425 0b3d
000001a0: caca 00bf 700e 413f d91e bc3d b101 78bc
000001b0: 9759 373d 8d09 173c 06d8 e9bd 94b6 efbc
000001c0: c2c6 87bd fa03 0ebe 7479 8fbd 8bcb 52bc
000001d0: 234c d0bd 4bd9 babe affc fdbe 7881 01bf
000001e0: 7194 a1bd b3aa e5bd f0b1 dabd 4902 2b3f
000001f0: f2b1 403f f33c bc3e 13ad 9cbe 45ee c1be
00000200: 7cde f0be 1ab4 b2be afe3 71be 8daa a33c
00000210: bfd2 453f ef62 ef3e c053 e33e c744 4ebe
00000220: 0a95 d93e 3feb 0fbf a807 f0bd cd7e 933e
00000230: 55c1 76be 39e7 f43c 9825 373f c0d1 f2be

conv2Dblock.0.module.bias f4 [16]
0.031971358 0.07146769 0.020051567 -0.04407716 -0.09625002 -0.024258967 0.05707794 -0.11311328
-0.11417156 -0.020061772 -0.0033393563 0.018686486 0.10656435 0.015236597 0.10385528 -0.02403683
00000000: 66f4 023d a75d 923d 2f43 a43c 418a 34bd
00000010: bb1e c5bd beba c6bc 8fca 693d efa7 e7bd
00000020: c7d2 e9bd 9658 a4bc 1ad9 5abb 6714 993c
00000030: 693e da3d eba2 793c 14b2 d43d e3e8 c4bc

conv2Dblock.1.module.weight f4 [16]
0.6436515 0.55426925 0.64416736 0.41437057 0.6501369 0.5773738 0.5975973 0.5327799
0.6345429 0.39360404 0.4513824 0.5989256 0.5435373 0.65994036 0.55603653 0.513495
00000000: 58c6 243f 97e4 0d3f 27e8 243f 6128 d43e
00000010: 5f6f 263f c5ce 133f 23fc 183f 4364 083f
00000020: 6771 223f 7886 c93e 981b e73e 3053 193f
00000030: 4325 0b3f daf1 283f 6958 0e3f 6974 033f

conv2Dblock.1.module.bias f4 [16]
-0.23262362 -0.16474175 -0.21095486 0.27201086 -0.33863455 -0.1424315 -0.23832999 -0.21986644
-0.21204731 -0.13095376 -0.12066779 -0.10902044 -0.046947613 -0.035568543 -0.0008271112 -0.12268128
00000000: e334 6ebe 10b2 28be 8d04 58be 0245 8b3e
00000010: 8261 adbe 90d9 11be c70c 74be ab24 61be
00000020: ee22 59be be18 06be ad20 f7bd 1c46 dfbd
00000030: 244c 40bd 52b0 11bd 7ed2 58ba 5340 fbbd

conv2Dblock.1.module.running_mean f4 [16]
0.030062666 0.07278219 0.021541936 -0.043482084 -0.096666194 -0.022663323 0.05696454 -0.1132229
-0.116139464 -0.02091255 -0.003909224 0.019040639 0.107792206 0.014875352 0.104063116 -0.023618883
00000000: fb45 f63c d40e 953d b778 b03c 451a 32bd
00000010: edf8 c5bd 6fa8 b9bc a653 693d 68e1 e7bd
00000020: 87da edbd cc50 abbc f318 80bb 1dfb 9b3c
00000030: 29c2 dc3d c0b7 733c 0b1f d53d 637c c1bc

conv2Dblock.1.module.running_var f4 [16]
0.52610433 0.28687805 0.3527991 0.08418384 0.23044653 0.3592312 0.2690753 0.27337995
0.5102999 0.15715723 0.11214399 0.4016337 0.20010528 0.42359582 0.32404137 0.2818996
00000000: c6ae 063f aee1 923e 15a2 b43e 9468 ac3d
00000010: 2dfa 6b3e 27ed b73e 3dc4 893e 75f8 8b3e
00000020: 04a3 023f d3ed 203e c0ab e53d efa2 cd3e
00000030: 66e8 4c3e 8de1 d83e c0e8 a53e 2555 903e

conv2Dblock.5.module.weight f4 [32, 16, 3, 3]
-0.053958133 -0.101895496 -0.12252665 0.08342157 0.015236559 -0.01752573 0.019374063 0.0032274234
0.02378265 -0.08823459 -0.031503376 0.038128305 -0.116224855 -0.099165075 0.025372842 -0.09599188
-0.056494683 0.015359865 -0.04313309 -0.056804225 0.011123297 -0.078559026 -0.057036895 -0.029889558
-0.044667244 -0.07014477 -0.053555522 0.008757873 0.13838996 0.011588544 0.027040679 -0.05324535
0.05642461 -0.021767775 -0.012647116 -0.00045410084 -0.0035645827 -0.06653733 -0.036046837 0.05191118
-0.061402455 -0.038462076 -0.0101466095 -0.026145026 -0.016396552 -0.04953357 0.0048253546 0.049315684
-0.084116526 0.02153084 -0.0055698915 -0.08875847 -0.02183812 0.0016202887 -0.09920193 0.039687734
-0.0068699988 -0.09224981 0.025688205 -0.02338802 -0.018042225 0.12758295 -0.0638665 -0.034879576
-0.014676366 0.006560468 -0.00019045113 0.05123611 0.11500242 -0.01614531 0.0435277 0.105665855
-0.046065558 -0.12481118 -0.10811113 0.028985305 -0.040578447 -0.059118375 0.086909615 -0.04265598
0.08070044 -0.030232364 -0.09510215 -0.056551058 0.058019005 -0.057178687 -0.0719213 0.054806367
-0.06504376 -0.007679386 -0.07302539 -0.12568207 -0.04983532 0.005388797 -0.08609475 0.016286612
-0.017184667 -0.060983777 -0.06327902 0.18324444 0.06989867 0.004022507 0.07727556 -0.06428695
0.017729647 0.17766382 0.35600352 -0.0011268507 -0.08204756 0.03999286 0.13429734 -0.06433518
-0.029968219 0.033611894 -0.07462802 0.00059321005 0.0018216055 0.005976323 -0.014096885 -0.038136866
0.117020935 0.037416425 -0.038778756 0.007458533 -0.010444268 0.04028118 0.07177479 -0.025222277
-0.03317951 -0.01681636 -0.034530327 0.05578647 0.008767433 -0.023525136 0.035419613 0.40151045
-0.07992424 -0.032981925 0.048246805 -0.060859527 0.018806705 -0.04712242 -0.11329593 0.08478587
-0.02734588 -0.057040285 0.1296117 -0.0044496413 0.07317507 0.0246851 0.09456406 0.08200697
0.05002403 -0.008710258 -0.061912864 -0.029877387 0.015895866 -0.027114006 -0.036293335 -0.012422569
-0.028240347 -0.0017658114 -0.04012836 -0.010408533 -0.029446958 -0.0027089312 -0.04462313 -0.02433709
-0.02443766 -0.021717135 -0.062036935 -0.06711307 -0.09453283 -0.08692456 -0.05255901 -0.053891864
-0.10316248 -0.036440577 -0.0496421 -0.11381322 -0.025059117 -0.104248755 -0.07010793 -0.036656097
-0.026136078 -0.03664873 -0.04424758 -0.06070597 0.002228182 -0.040399317 -0.04256805 0.0052011516
-0.019117376 0.013208478 -0.022301756 -0.025768504 -0.014703193 -0.022444919 -0.0999233 -0.13366993
-0.1407734 -0.041586906 -0.059914343 -0.09638279 0.0053288927 -0.024848117 0.0029461123 0.13749628
0.11476282 0.15519333 0.063855946 0.10080172 -0.024075024 0.14668621 0.051155824 0.024699526
0.0141013 0.00395327 -0.03226971 -0.016176807 0.06235465 0.05884011 0.08967643 0.12849243
0.015244452 -0.038142234 -0.056114238 -0.013498406 -0.02950368 -0.040174413 0.052686807 0.003451322
0.0014777628 0.014666079 -0.027002515 -0.04316275 -0.06651243 -0.14557551 -0.07889319 -0.016094474
-0.012080584 -0.034329988 0.02761082 -0.0037017695 -0.055075247 0.001086962 -0.024848823 -0.040274885
-0.13766785 -0.074100874 -0.0060414653 -0.07672561 -0.010045493 -0.05314306 -0.028167993 -0.018320931
00000000: 3403 5dbd 96ae d0bd 41ef fabd eed8 aa3d
00000010: c3a2 793c 1f92 8fbc 5bb6 9e3c 2e83 533b
00000020: d5d3 c23c 56b4 b4bd af09 01bd 6d2c 1c3d
00000030: 4c07 eebd 0f17 cbbd b5da cf3c 6497 c4bd
00000040: f866 67bd f1a7 7b3c 53ac 30bd 8cab 68bd
00000050: 7d3e 363c 8ee3 a0bd 859f 69bd f2da f4bc
00000060: 00f5 36bd 10a8 8fbd 095d 5bbd 2f7d 0f3c
00000070: 19b6 0d3e e0dd 3d3c 6a84 dd3c cc17 5abd
00000080: 7e1d 673d 5552 b2bc d935 4fbc 6214 eeb9
00000090: c69b 69bb b944 88bd d9a5 13bd d1a0 543d
000000a0: 2481 7bbd 698a 1dbd f73d 26bc 182e d6bc
000000b0: 1052 86bc b6e3 4abd 021e 9e3b 3eff 493d
000000c0: 4945 acbd 7261 b03c a383 b6bb 00c7 b5bd
000000d0: dbe5 b2bc de5f d43a 622a cbbd 9b8f 223d
000000e0: ba1d e1bb 78ed bcbd 1270 d23c 3c98 bfbc
000000f0: 4acd 93bc 1ba5 023e 71cc 82bd e3dd 0ebd
00000100: 2475 70bc 32f9 d63b d6b3 47b9 f5dc 513d
00000110: 6486 eb3d 2b43 84bc 1a4a 323d 5767 d83d
00000120: 3daf 3cbd 019d ffbd 5e69 ddbd 9772 ed3c
00000130: 9635 26bd 1c26 72bd abfd b13d 09b8 2ebd
00000140: 4646 a53d dda9 f7bc ebc4 c2bd 15a2 67bd
00000150: 56a5 6d3d 3334 6abd 794b 93bd a47c 603d
00000160: aa35 85bd 5ca3 fbbb 568e 95bd cdb2 00be
00000170: 1f20 4cbd 8194 b03b 7252 b0bd 806b 853c
00000180: dcc6 8cbc 20ca 79bd 6e98 81bd 6ea4 3b3e
00000190: 0927 8f3d 3ccf 833b a642 9e3d e0a8 83bd
000001a0: c43d 913c 81ed 353e 1846 b63e d6b2 93ba
000001b0: 8d08 a8bd 8ecf 233d 3e85 093e 2ac2 83bd
000001c0: e97f f5bc a0ac 093d 93d6 98bd a781 1b3a
000001d0: f0c2 ee3a 08d5 c33b 9ff6 66bc 6735 1cbd
000001e0: aca8 ef3d f741 193d 79d6 1ebd b666 f43b
000001f0: 6f1e 2bbc e1fd 243d a9fe 923d f39e cebc
00000200: 3de7 07bd 77c2 89bc ac6f 0dbd 5b80 643d
00000210: 48a5 0f3c c9b7 c0bc 2814 113d c792 cd3e
00000220: 52af a3bd 0e18 07bd 719e 453d d747 79bd
00000230: 8510 9a3c 7003 41bd b207 e8bd 37a4 ad3d
00000240: 7804 e0bc 13a3 69bd eeb8 043e 4cce 91bb
00000250: d0dc 953d 6838 ca3c cdaa c13d 45f3 a73d
00000260: ffe5 4c3d 78b5 0ebc 5898 7dbd 6cc1 f4bc
00000270: 0c38 823c 311e debc 52a8 14bd 0888 4bbc
00000280: 4d58 e7bc cc72 e7ba a35d 24bd 8d88 2abc
00000290: bf3a f1bc 5388 31bb bec6 36bd 945e c7bc
000002a0: 7d31 c8bc 22e8 b1bc 711a 7ebd 9472 89bd
000002b0: 6e9a c1bd 8105 b2bd 1e48 57bd b7bd 5cbd
000002c0: da46 d3bd b742 15bd 8455 4bbd e816 e9bd
000002d0: c748 cdbc 5f80 d5bd bf94 8fbd b424 16bd
000002e0: 541b d6bc fb1c 16bd f33c 35bd d3a6 78bd
000002f0: b106 123b c179 25bd d65b 2ebd 6c6e aa3b
00000300: 0b9c 9cbc 5f68 583c 2cb2 b6bc 7818 d3bc
00000310: a9e5 70bc 68de b7bc 96a4 ccbd c5e0 08be
00000320: e726 10be 0857 2abd be68 75bd 5764 c5bd
00000330: fe9d ae3b 478e cbbc 9013 413b d3cb 0c3e
00000340: c508 eb3d 00eb 1e3e e8c6 823d 2271 ce3d
00000350: fc38 c5bc e934 163e c588 513d a956 ca3c
00000360: 2409 673c 6f8a 813b 3e2d 04bd 3985 84bc
00000370: 9767 7f3d 5402 713d 47a8 b73d 8593 033e
00000380: dec3 793c 083b 1cbd 0bd8 65bd 6b28 5dbc
00000390: b4b1 f1bc ed8d 24bd 1fce 573d 932f 623b
000003a0: 7eb1 c13a fe49 703c 6134 ddbc 6ccb 30bd
000003b0: ab37 88bd bf11 15be c192 a1bd 8fd8 83bc
000003c0: a4ed 45bc 9a9d 0cbd 1630 e23c 6399 72bb
000003d0: 9596 61bd 6478 8e3a c28f cbbc 47f7 24bd
000003e0: cdf8 0cbe 33c2 97bd 7cf7 c5bb 5122 9dbd
000003f0: da95 24bc 8aac 59bd 90c0 e6bc c715 96bc

conv2Dblock.5.module.bias f4 [32]
-0.019329358 -0.024517769 0.018264282 0.023958808 0.00032342426 -0.023526024 0.02044871 -0.026032142
-0.018584946 0.009461951 -0.0048359167 0.021347323 0.010212089 0.011786541 -0.009610112 0.00459926
0.02026288 -0.013102699 -0.013172571 -0.010357865 -0.01789944 0.009777093 0.015651068 -0.0028879012
-0.005995036 -0.019530766 -0.0055875354 -0.018757034 -0.025550028 -0.0071757045 -0.02733812 -0.02690876
00000000: 9a58 9ebc 7dd9 c8bc fa9e 953c 4345 c43c
00000010: 4591 a939 a6b9 c0bc 0e84 a73c 5c41 d5bc
00000020: 753f 98bc 4d06 1b3c 9c76 9ebb 95e0 ae3c
00000030: 9b50 273c 561c 413c bb73 1dbc 64b5 963b
00000040: 57fe a53c b4ac 56bc c4d1 57bc 09b4 29bc
00000050: d9a1 92bc 1a30 203c ab36 803c f142 3dbb
00000060: 0272 c4bb fcfe 9fbc a517 b7bb 5aa8 99bc
00000070: 4b4e d1bc 2c22 ebbb 31f4 dfbc c36f dcbc

conv2Dblock.6.module.weight f4 [32]
0.31919682 0.37970093 0.531618 0.3903648 0.4490121 0.45040432 0.40667996 0.30515188
0.3237533 0.5071605 0.46227357 0.6174315 0.35114044 0.33095843 0.5137823 0.38232526
0.60983056 0.4752453 0.44488248 0.47352335 0.39233947 0.3720415 0.74543405 0.33672944
0.38184944 0.60844696 0.43535995 0.59108704 0.49115086 0.32588947 0.3124355 0.6565917
00000000: c46d a33e 2968 c23e 1e18 083f e5dd c73e
00000010: eae4 e53e 659b e63e 5b38 d03e de3c 9c3e
00000020: fec2 a53e 45d5 013f 1faf ec3e fe0f 1e3f
00000030: aec8 b33e 6273 a93e 3d87 033f 23c0 c33e
00000040: db1d 1c3f 5a53 f33e a3c7 e33e a771 f23e
00000050: b8e0 c83e 397c be3e c4d4 3e3f cd67 ac3e
00000060: c581 c33e 2ec3 1b3f 80e7 de3e 7b51 173f
00000070: 2078 fb3e fcda a63e 8cf7 9f3e 6516 283f

conv2Dblock.6.module.bias f4 [32]
-0.2649895 -0.45101017 -0.22491582 -0.3266898 -0.36591983 -0.48344353 -0.28387898 -0.25772995
-0.39768142 -0.42674527 -0.25391364 -0.4075617 -0.43921554 -0.31208894 -0.3165168 -0.2971392
-0.39806557 -0.25573128 -0.47328216 -0.36837423 -0.27006748 -0.4693689 -0.60476714 -0.25990024
-0.28920016 -0.42170402 -0.31410873 -0.5731917 -0.39992657 -0.2604705 -0.24630828 -0.5423793
00000000: b4ac 87be ceea e6be 5550 66be e343 a7be
00000010: d859 bbbe e985 f7be 9658 91be 2ef5 83be
00000020: e69c cbbe 5b7e dabe f800 82be edab d0be
00000030: dce0 e0be 1fca 9fbe 7d0e a2be a122 98be
00000040: 40cf cbbe 36ef 82be 0a52 f2be 8c9b bcbe
00000050: 4946 8abe 1f51 f0be 05d2 1abf a511 85be
00000060: 0b12 94be 97e9 d7be dcd2 a0be b1bc 12bf
00000070: 2dc3 ccbe 645c 85be 3d38 7cbe 5fd9 0abf

conv2Dblock.6.module.running_mean f4 [32]
-0.0821285 -0.5461208 -0.7438771 -0.18317266 -1.0519905 -0.8345482 -0.8324161 0.6842849
0.9184839 -0.9824599 -0.6376858 -0.81061834 -0.0022304982 -0.57328874 -0.9203152 0.11691933
-0.65473914 -0.19678406 -0.8416388 -0.8180883 -0.8401801 -0.7266481 -1.4766517 -0.35322177
-0.6221633 -1.0592581 -0.84892374 -1.0047326 -1.1876833 0.0655069 -0.5700612 -1.3733222
00000000: fd32 a8bd 93ce 0bbf bb6e 3ebf 9d91 3bbe
00000010: a0a7 86bf f3a4 55bf 3919 55bf 4c2d 2f3f
00000020: c321 6b3f 7e82 7bbf 603f 23bf af84 4fbf
00000030: 8d2d 12bb 0dc3 12bf c799 6bbf 6773 ef3d
00000040: fc9c 27bf c381 49be a475 57bf 3c6e 51bf
00000050: 0b16 57bf 9c05 3abf ec02 bdbf 7cd9 b4be
00000060: 1846 1fbf c595 87bf 1153 59bf 149b 80bf
00000070: 0206 98bf 7b28 863d 88ef 11bf 06c9 afbf

conv2Dblock.6.module.running_var f4 [32]
0.42196622 0.7379358 1.0713586 0.6001653 0.7390016 0.57814 0.67679113 0.50192803
0.6081929 0.77068454 1.0567496 1.5217054 0.6578537 0.5602601 0.894679 0.63734865
1.0251404 1.0554059 0.5421264 1.0791361 0.55321985 0.56522584 1.2175014 0.5413503
0.44623077 1.0671949 1.0068674 1.1989775 0.8651704 0.44856435 0.51649934 1.1441216
00000000: f50b d83e 5ce9 3c3f 4722 893f 6fa4 193f
00000010: 352f 3d3f fc00 143f 2f42 2d3f 5b7e 003f
00000020: 88b2 1b3f 954b 453f 9243 873f 3ec7 c23f
00000030: 1a69 283f 356d 0f3f af09 653f 4829 233f
00000040: cd37 833f 8a17 873f ccc8 0a3f 2221 8a3f
00000050: d19f 0d3f a4b2 103f 16d7 9b3f ef95 0a3f
00000060: 5c78 e43e d899 883f 08e1 803f 1878 993f
00000070: cf7b 5d3f 3aaa e53e 4d39 043f 9472 923f

conv2Dblock.10.module.weight f4 [64, 32, 3, 3]
-0.04320505 0.023738533 0.015955087 0.024870371 0.09523827 -0.03418079 0.045932375 0.110580355
-0.015589338 0.034302026 -0.02545839 0.08606422 0.021531219 -0.083505265 -0.0222511 -0.05292599
-0.13517116 -0.10118398 -0.05747839 -0.15384239 -0.03513188 -0.06423618 -0.08292953 0.0014035365
-0.020776287 -0.058072466 0.0035032183 -0.03076576 0.017059077 -0.0717918 0.040055785 0.016383247
-0.07501065 -0.038881354 -0.03505162 -0.068786256 0.0764449 0.0014659197 0.08141523 0.02292339
-0.062380858 -0.050365224 0.04753289 -0.08257882 -0.049881347 0.04664166 0.053434905 0.005756167
0.017307583 0.036144592 0.00789595 0.02765083 -0.045918986 -0.04464518 -0.0012362554 -0.051775116
0.059936643 0.06468042 -0.115007214 0.0808284 0.01756884 -0.03770291 0.019690149 0.009335812
0.09250103 0.059978206 -0.029832488 -0.011190561 0.014102068 0.046652596 -0.015228767 -0.0075737447
-0.027208205 -0.026236115 -0.061267782 -0.094084725 -0.078062415 -0.0674374 -0.039852925 -0.04386038
-0.0008002138 -0.042922236 -0.05274301 -0.05264781 -0.062453594 -0.01992797 -0.026985668 -0.07854702
-0.05215121 -0.06572103 -0.1628451 -0.10065685 -0.01756183 -0.08525601 -0.037926763 0.0011422085
-0.015068182 0.04335789 0.07034056 -0.09653103 -0.041039806 -0.07170238 -0.107866906 -0.00992612
-0.07534665 -0.064730495 0.044139147 0.06327186 -0.009971279 0.037301302 0.018844673 0.024690837
0.049977154 -0.077655435 0.06101669 0.053586464 0.0057389494 0.05670454 0.017960954 0.004304589
-0.07339751 -0.05413831 -0.029902492 0.0018716058 -0.09632171 -0.12106607 -0.12960723 0.004706363
-0.043301404 -0.057532538 -0.020633476 -0.081049755 -0.06066955 0.07939111 0.0097330995 -0.0781352
0.010137338 0.049731005 -0.098114125 0.055484086 0.033009738 -0.008401472 0.115141355 0.09037135
-0.08273622 -0.034640696 0.07973431 -0.0721562 -0.018106932 0.06435467 0.10738662 0.015844556
0.035779387 -0.09616513 -0.13487183 0.045374025 -0.11152727 -0.066526756 0.036144786 0.03679983
-0.017884873 0.01654388 -0.014224047 0.09097795 0.033059333 0.031217441 -0.00255344 -0.035264775
0.15057713 -0.022314759 0.035540435 -0.10109831 -0.041847803 -0.046743676 -0.13748103 -0.0026607972
-0.07478825 -0.08853058 0.0011104551 0.035942223 0.06329966 0.0032085418 0.05436388 0.11226919
0.0035901219 0.01658779 0.0041148476 -0.036963563 -0.06538768 0.0012236285 0.06979404 0.03373059
0.06690498 -0.018611059 0.036644325 0.083039455 0.017637772 0.06854024 -0.033896863 -0.017206013
0.10603907 0.051990323 0.107827045 0.0065694093 0.045062073 -0.07987253 -0.06312074 -0.05249769
-0.065333866 -0.09086684 0.02068149 -0.06280418 -0.06613091 -0.012515603 0.004095115 -0.01415594
0.11879296 0.009280646 0.053325918 0.05530423 -0.01639359 -0.04492204 0.0043063536 -0.05247177
-0.066186465 -0.11555256 -0.03641936 0.0712956 -0.01888981 0.030381976 0.05007355 0.06950749
-0.05139203 0.020141158 0.084605 0.07246886 0.015669163 0.0022573469 -0.04461996 -0.06827133
0.07187469 0.040862992 -0.010489809 -0.049189407 -0.004526444 -0.06732414 -0.078919515 0.03185019
0.001093894 -0.03876088 0.023629175 -0.058793206 0.08377433 0.070159934 0.06368383 0.017394658
00000000: c7f7 30bd 5077 c23c 3eb4 823c f3bc cb3c
00000010: 480c c33d 2801 0cbd 9623 3c3d f477 e23d
00000020: 6c6a 7fbc 4880 0c3d 1d8e d0bc 7042 b03d
00000030: 3d62 b03c cf04 abbd f047 b6bc ecc8 58bd
00000040: 4f6a 0abe 8c39 cfbd 766e 6bbd dc88 1dbe
00000050: 72e6 0fbd 428e 83bd f5d6 a9bd dff6 b73a
00000060: 0833 aabc 65dd 6dbd 4096 653b 7a08 fcbc
00000070: 7abf 8b3c 9407 93bd 8911 243d 2936 863c
00000080: 2f9f 99bd 0e42 1fbd 4a92 0fbd cfdf 8cbd
00000090: 258f 9c3d 1a24 c03a 07bd a63d d5c9 bb3c
000000a0: 1283 7fbd c44b 4ebd d9b1 423d 161f a9bd
000000b0: 6250 4cbd 530b 3f3d 8fde 5a3d 3b9e bc3b
000000c0: a2c8 8d3c 5a0c 143d 045e 013c fe83 e23c
000000d0: 8c15 3cbd dddd 36bd d909 a2ba 2512 54bd
000000e0: 2080 753d 2b77 843d e788 ebbd 5c89 a53d
000000f0: 87ec 8f3c 5e6e 1abd 3c4d a13c 3cf5 183c
00000100: 2e71 bd3d b5ab 753d 4363 f4bc 9d58 37bc
00000110: 5c0c 673c cb16 3f3d 1482 79bc 2d2d f8bb
00000120: bee3 debc 1fed d6bc edf3 7abd 7eaf c0bd
00000130: 30df 9fbd 9f1c 8abd d23c 23bd f1a6 33bd
00000140: 70c5 51ba 3acf 2fbd 0e09 58bd 3ba5 57bd
00000150: 57cf 7fbd fb3f a3bc 0c11 ddbc 43dd a0bd
00000160: 829c 55bd bf98 86bd dec0 26be 2e25 cebd
00000170: d4dd 8fbc b49a aebd 1859 1bbd 28b6 953a
00000180: 89e0 76bc 0b98 313d b60e 903d 10b2 c5bd
00000190: 5b19 28bd b3d8 92bd 53e9 dcbd 2aa1 22bc
000001a0: 584f 9abd 6c91 84bd 40cb 343d ad94 813d
000001b0: 935e 23bc 40c9 183d 2560 9a3c 7044 ca3c
000001c0: d8b4 4c3d d009 9fbd a3ec 793d 7b7d 5b3d
000001d0: cc0d bc3b 0543 683d da22 933c 820d 8d3b
000001e0: 6f51 96bd 22c0 5dbd 12f6 f4bc ab50 f53a
000001f0: 5144 c5bd 7df1 f7bd c2b7 04be d637 9a3b
00000200: d05c 31bd 3da7 6bbd 8907 a9bc 6afd a5bd
00000210: a280 78bd ce97 a23d 9477 1f3c 5905 a0bd
00000220: 1417 263c bdb2 4b3d 0ff0 c8bd 4843 633d
00000230: 3835 073d 54a6 09bc 3bcf eb3d 9d14 b93d
00000240: 9b71 a9bd 67e3 0dbd be4b a33d a1c6 93bd
00000250: fd54 94bc 62cc 833d 84ed db3d 71cc 813c
00000260: 688d 123d 39f2 c4bd d71b 0abe 1dda 393d
00000270: 6968 e4bd 2e3f 88bd 8e0c 143d 6bbb 163d
00000280: 4c83 92bc 0887 873c fa0b 69bc a652 ba3d
00000290: 3969 073d b8bb ff3c 9d57 27bb cc71 10bd
000002a0: e430 1a3e 71cd b6bc d992 113d a10c cfbd
000002b0: 9a68 2bbd 4c76 3fbd d4c7 0cbe c560 2ebb
000002c0: 952a 99bd 854f b5bd b18c 913a 2738 133d
000002d0: 41a3 813d 6646 523b a9ac 5e3d 64ed e53d
000002e0: 4048 6b3b 1ee3 873c d8d5 863b 1b67 17bd
000002f0: fae9 85bd 2962 a03a 2df0 8e3d 1629 0a3d
00000300: 7a05 893d 3876 98bc 5c18 163d 9710 aa3d
00000310: 177d 903c d35e 8c3d 70d7 0abd a0f3 8cbc
00000320: 032b d93d cef3 543d 6dd4 dc3d 3344 d73b
00000330: 0293 383d 3694 a3bd 7245 81bd d107 57bd
00000340: c3cd 85bd 6518 babd 3a6c a93c 7a9f 80bd
00000350: a46f 87bd 3e0e 4dbc 5030 863b 51ee 67bc
00000360: b949 f33d da0d 183c 476c 5a3d b086 623d
00000370: da4b 86bc 2c00 38bd 501c 8d3b a4ec 56bd
00000380: c58c 87bd d2a6 ecbd 782c 15bd 6d03 923d
00000390: cebe 9abc 9fe3 f83c ec19 4d3d f159 8e3d
000003a0: 7380 52bd 12ff a43c 6345 ad3d 8e6a 943d
000003b0: 9e5c 803c ffef 133b 6bc3 36bd d7d1 8bbd
000003c0: 0a33 933d f45f 273d 73dd 2bbc d57a 49bd
000003d0: 9052 94bb 3de1 89bd 8ea0 a1bd 5875 023d
000003e0: fe60 8f3a bac3 1ebd f991 c13c 25d1 70bd
000003f0: e091 ab3d 03b0 8f3d ab6c 823d 3e7f 8e3c

conv2Dblock.10.module.bias f4 [64]
0.012858658 -0.01508755 -0.020408664 -0.0058559887 0.008886452 0.017928027 0.0054714843 0.00027001335
0.010829901 -0.016205184 -0.011368462 -0.020419966 0.00023649448 0.015461779 -0.0040202355 0.0146543365
0.014163421 -0.01752749 -0.014011138 -0.0055928896 0.010205049 -0.010684903 -0.012124453 -0.00643956
0.011432778 -0.019006772 0.014078415 -0.008675699 -0.014846271 -0.0052265734 -0.019495463 0.014713288
0.017181665 -0.0050613116 0.017283762 0.012782313 -0.001700689 -0.013269059 -0.004401058 0.0047951746
-0.00013182429 -0.002522936 -0.0054547647 -0.00031636347 0.0147419 -0.009774691 -0.017675575 0.013620613
-0.018450322 -0.02046599 -0.0073619457 0.0021491104 -0.0012481143 -0.0069005834 0.019887477 0.0051326323
0.0062340973 0.008274726 0.007394653 -0.004709629 0.019444156 0.015438314 0.00085041276 -0.0017834229
00000000: 1fad 523c c531 77bc 1230 a7bc 98e3 bfbb
00000010: 7b98 113c ccdd 923c 234a b33b 9490 8d39
00000020: e66f 313c bcc0 84bc c942 3abc c647 a7bc
00000030: 81fb 7739 6753 7d3c 2ebc 83bb be18 703c
00000040: b10d 683c d095 8fbc f98e 65bc 8f44 b7bb
00000050: 1433 273c bb0f 2fbc a4a5 46bc f202 d3bb
00000060: 8c50 3b3c 17b4 9bbc 27a9 663c 8524 0ebc
00000070: c63d 73bc ad43 abbb f3b4 9fbc 0110 713c
00000080: 90c0 8c3c 5cd9 a5bb ad96 8d3c e86c 513c
00000090: a7e9 deba 7866 59bc c036 90bb d720 9d3b
000000a0: 503a 0ab9 d857 25bb e2bd b2bb 96dd a5b9
000000b0: 0388 713c 0726 20bc 5ecc 90bc fe28 5f3c
000000c0: 2125 97bc 4ba8 a7bc 7a3c f1bb 17d8 0c3b
000000d0: c497 a3ba 4a1e e2bb 10eb a23c a42f a83b
000000e0: 6647 cc3b b792 073c d84e f23b 3b53 9abb
000000f0: 5a49 9f3c fbf0 7c3c 3cee 5e3a bec1 e9ba

conv2Dblock.11.module.weight f4 [64]
0.31353033 0.36022222 0.5113461 0.5494837 0.49832246 0.34618592 0.29791424 0.35654032
0.43274862 0.43631297 0.42630303 0.20572108 0.46702895 0.50112075 0.23488443 0.4936458
0.37466705 0.34369364 0.3559628 0.32330355 0.50586337 0.60776025 0.259253 0.589663
0.5940827 0.592162 0.61324424 0.2602663 0.40166095 0.41549644 0.34583405 0.20722458
0.539615 0.55287796 0.55286324 0.5066975 0.4360226 0.44291192 0.34870166 0.35754374
0.5132293 0.39443436 0.5235755 0.5835332 0.43437874 0.3873851 0.3632139 0.4246854
0.488772 0.39884582 0.4038876 0.3845583 0.50032943 0.42814165 0.26669082 0.3866339
0.45817682 0.3044933 0.4730304 0.38964412 0.5439474 0.38267115 0.5226895 0.5106223
00000000: 0c87 a03e 0c6f b83e 94e7 023f f7aa 0c3f
00000010: 1f24 ff3e 483f b13e 3788 983e 748c b63e
00000020: 3a91 dd3e 6a64 df3e 6444 da3e 8ca8 523e
00000030: 6b1e ef3e 7349 003f 8b85 703e 24bf fc3e
00000040: 5cd4 bf3e 9df8 af3e c240 b63e 0b88 a53e
00000050: 4380 013f 2d96 1b3f cfbc 843e 28f4 163f
00000060: ce15 183f ee97 173f 93fd 1c3f a041 853e
00000070: 81a6 cd3e f3bb d43e 2911 b13e ae32 543e
00000080: 3524 0a3f 6989 0d3f 7288 0d3f edb6 013f
00000090: 5b3e df3e 5ac5 e23e 0689 b23e f90f b73e
000000a0: ff62 033f 4df3 c93e 0b09 063f 6f62 153f
000000b0: e466 de3e 5757 c63e 2cf7 b93e 5d70 d93e
000000c0: 5340 fa3e 8535 cc3e 5bca ce3e d3e4 c43e
000000d0: 9715 003f 6235 db3e b38b 883e e1f4 c53e
000000e0: 2796 ea3e 8ce6 9b3e 0a31 f23e 6f7f c73e
000000f0: 2340 0b3f 79ed c33e fbce 053f 25b8 023f

conv2Dblock.11.module.bias f4 [64]
-0.41253293 -0.34575093 -0.53462714 -0.61935616 -0.46074927 -0.46514258 -0.42028585 -0.44960415
-0.447564 -0.44997206 -0.41946197 -0.27061248 -0.49444497 -0.54062307 -0.26021776 -0.4881678
-0.43811768 -0.31456074 -0.38994938 -0.3617955 -0.5189903 -0.46947896 -0.2980385 -0.49927253
-0.55609787 -0.4834808 -0.6921518 -0.2695251 -0.43543112 -0.4385852 -0.50697803 -0.23976444
-0.50065327 -0.5150793 -0.36910176 -0.5561453 -0.55812323 -0.54344 -0.51267713 -0.4098583
-0.47218037 -0.42746285 -0.46250257 -0.63944757 -0.42863083 -0.46166214 -0.41667077 -0.46016577
-0.47187123 -0.30205172 -0.38020945 -0.4080785 -0.45372292 -0.45663258 -0.3684765 -0.40905344
-0.49145368 -0.36131418 -0.57069355 -0.374143 -0.4709955 -0.31886816 -0.53023183 -0.4970335
00000000: 8437 d3be 4406 b1be 53dd 08bf 208e 1ebf
00000010: 54e7 ebbe 2b27 eebe b52f d7be 8432 e6be
00000020: 1c27 e5be bd62 e6be b8c3 d6be b88d 8abe
00000030: e427 fdbe 4666 0abf 433b 85be 21f1 f9be
00000040: f650 e0be 1b0e a1be 72a7 c7be 433d b9be
00000050: 8cdc 04bf 8c5f f0be 8198 98be a6a0 ffbe
00000060: 6e5c 0ebf cc8a f7be dc30 31bf 32ff 89be
00000070: d4f0 debe 3d8e e0be 50c9 01bf cf84 75be
00000080: d02a 00bf 3ddc 03bf e8fa bcbe 8a5f 0ebf
00000090: 2ae1 0ebf e21e 0bbf cf3e 03bf f2d8 d1be
000000a0: a0c1 f1be 69dc dabe 23cd ecbe d6b2 23bf
000000b0: 8075 dbbe fb5e ecbe df55 d5be d99a ebbe
000000c0: 1b99 f1be 86a6 9abe d0aa c2be aaef d0be
000000d0: 5f4e e8be bfcb e9be f4a8 bcbe 746f d1be
000000e0: d19f fbbe 2cfe b8be f918 12bf ac8f bfbe
000000f0: 5226 f1be b042 a3be 46bd 07bf 2d7b febe

conv2Dblock.11.module.running_mean f4 [64]
-0.3431899 -0.8586235 -1.077512 -1.0674871 -1.155316 -0.69073206 -0.34059122 0.06518214
-1.0735022 -0.6302465 -0.4835283 0.31140053 -1.1575799 -0.9791619 -0.6798657 -1.0278372
-0.8120038 -0.18740387 -0.6884716 -0.28274 -1.0550545 -1.5185276 0.061286267 -1.2979997
-1.6457889 -1.4671028 -1.213352 -0.42060646 -0.71064365 -0.60882705 -0.23793976 -0.004363273
-1.1436447 -1.1613452 -1.3761905 -0.645593 -1.2235993 -0.90349025 -0.5575605 -0.49261174
-1.0420846 -0.92866397 -1.4220669 -1.0354228 -0.861497 -0.47768337 -0.45630494 -0.64016676
-1.0813568 -0.13042954 -0.5414802 -0.85365736 -0.98811287 -0.7847302 -0.14165005 -0.42507103
-0.9256177 -0.42567748 -0.9859462 -0.81997144 -1.0756539 -0.7552781 -0.9176622 -0.84006983
00000000: 96b6 afbe c0ce 5bbf eaeb 89bf 6ba3 88bf
00000010: 65e1 93bf d1d3 30bf f961 aebe 377e 853d
00000020: 8568 89bf d657 21bf 0591 f7be e46f 9f3e
00000030: 942b 94bf 5baa 7abf ae0b 2ebf 2b90 83bf
00000040: 7bdf 4fbf cde6 3fbe ad3f 30bf 4cc3 90be
00000050: 070c 87bf 1d5f c2bf 4f07 7b3d db24 a6bf
00000060: 36a9 d2bf 06ca bbbf 1e4f 9bbf bb59 d7be
00000070: beec 35bf 17dc 1bbf 7ba6 73be c9f9 8ebb
00000080: f362 92bf f6a6 94bf 0327 b0bf 9545 25bf
00000090: e79e 9cbf 234b 67bf 49bc 0ebf 9b37 fcbe
000000a0: 0763 85bf ecbc 6dbf 4a06 b6bf bc88 84bf
000000b0: 118b 5cbf ea92 f4be cda0 e9be f8e1 23bf
000000c0: e669 8abf 528f 05be 729e 0abf 4a89 5abf
000000d0: f7f4 7cbf 14e4 48bf b60c 11be e9a2 d9be
000000e0: 48f5 6cbf 66f2 d9be f866 7cbf a6e9 51bf
000000f0: 07af 89bf e859 41bf e9eb 6abf d10e 57bf

conv2Dblock.11.module.running_var f4 [64]
0.3838497 0.5631214 0.73013175 0.91382027 0.8621643 0.60437596 0.4527129 0.5345194
0.88971704 0.7514452 0.6822336 0.40291208 0.7917864 0.84127045 0.36677325 0.8075363
0.6453992 0.75484556 0.5800683 0.48526904 0.9515647 0.8999086 0.2919217 0.95374686
0.8186866 0.95469654 0.8944018 0.43158886 0.65830433 0.64850104 0.45516124 0.40498146
1.0013247 1.0344657 0.70076716 0.7346115 0.5913025 0.58698565 0.5207938 0.7308574
0.6928671 0.56930363 0.9668517 0.88351923 0.59150237 0.55887634 0.46194214 0.57812476
0.8259966 0.7345659 0.59897715 0.68875366 0.8218478 0.69001853 0.3847095 0.6245497
0.6772911 0.5142599 0.8263955 0.5693745 0.82902396 0.6092891 0.5850573 0.8886218
00000000: f387 c43e b928 103f eae9 3a3f 20f0 693f
00000010: cdb6 5c3f 62b8 1a3f fcc9 e73e 43d6 083f
00000020: 7fc4 633f b65e 403f dca6 2e3f 7e4a ce3e
00000030: 83b2 4a3f 805d 573f b4c9 bb3e b3ba 4e3f
00000040: e238 253f 8f3d 413f 5b7f 143f 2f75 f83e
00000050: bf99 733f 6960 663f c376 953e c128 743f
00000060: 7295 513f fe66 743f 84f7 643f 37f9 dc3e
00000070: a286 283f 2a04 263f e50a e93e bb59 cf3e
00000080: 682b 803f 5f69 843f 7a65 333f 800f 3c3f
00000090: 9a5f 173f b144 163f be52 053f 7819 3b3f
000000a0: bd5f 313f e2bd 113f 9883 773f 512e 623f
000000b0: b36c 173f 8512 0f3f ae83 ec3e fcff 133f
000000c0: 8374 533f 830c 3c3f 9156 193f 2952 303f
000000d0: 9e64 523f 0ea5 303f a5f8 c43e 7de2 1f3f
000000e0: f362 2d3f 89a6 033f a88e 533f 87c2 113f
000000f0: ea3a 543f 5ffa 1b3f 51c6 153f b87c 633f

conv2Dblock.15.module.weight f4 [128, 64, 3, 3]
-0.04669194 -0.04910548 0.010099341 0.0060063237 0.09775626 0.01924798 -0.055391178 0.005548114
-0.08145886 -0.028938448 -0.030092698 -0.0038011188 -0.050762203 -0.09617365 0.015734538 0.028077539
-0.054011878 0.018696025 0.006646216 -0.04647322 -0.02211851 -0.049717735 -0.05776757 -0.064638786
0.01711646 0.042457093 -0.037871234 -0.035864912 -0.067841664 -0.017573224 0.05627224 0.065933265
0.041591283 -0.013323101 0.00093133486 -0.030597357 -0.0051741223 -0.070372306 0.00033272256 0.033084832
0.022662887 0.021846911 -0.025409495 0.003980208 -0.034120984 -0.054026682 -0.045741566 -0.04470381
-0.03506365 -0.060032673 -0.07523454 0.021055676 -0.041165143 -0.07043904 0.0019838007 -0.03271068
-0.02146141 -0.06871767 -0.057682294 0.010521902 -0.032483093 0.035505928 0.016736364 -0.0046742936
-0.006370634 -0.015972277 0.019263089 -0.018364979 -0.0077241166 0.07410587 0.047676828 0.024172286
-0.054380566 -0.056274924 -0.037111945 -0.064476244 -0.042729683 0.025210168 0.0016924968 0.09484992
-0.01116297 0.020246657 0.024323475 0.006496303 0.0017770996 -0.05881902 -0.04694701 0.051986918
0.0527261 0.045733847 -0.010326694 -0.036358375 -0.009081422 0.024204941 0.11943213 -0.024884632
-0.0033964105 -0.008956424 -0.04711818 -0.021741113 -0.05175161 -0.008373153 0.021313988 0.019667262
0.001561495 -0.08071033 -0.035550397 -0.051407494 -0.047017608 -0.09063969 -0.03992452 0.03528161
0.1295329 -0.028282866 -0.05374797 -0.09861712 -0.01237403 -0.04647417 -0.016360315 -0.04024127
-0.0049719526 -0.093559004 -0.04650213 -0.07769152 -0.041104667 0.063046254 -0.048652012 -0.061170865
-0.010828456 -0.04386993 -0.026364354 -0.046396125 -0.046527606 -0.057456277 -0.051829793 -0.011317871
-0.026704416 -0.041017905 -0.021892078 -0.056671422 0.03191005 -0.021082448 -0.014927217 0.017607102
-0.03112595 -0.09045103 -0.016159989 -0.037023544 -0.03067025 -0.013468893 -0.021772241 -0.040250216
-0.039509375 -0.030834278 -0.026749134 -0.012486697 0.013769041 -0.034830675 -0.029636942 0.12928633
-0.00787307 -0.049702473 0.01237596 -0.011425231 0.023077205 -0.01596726 -0.08043174 -0.05158615
-0.021637082 -0.023180114 -0.055750404 -0.07360913 -0.06958286 -0.007179633 -0.039008792 -0.008485288
-0.046947774 -0.06405513 -0.04278551 -0.06786523 -0.0096540265 -0.049921267 0.020948604 0.035270162
0.100755505 0.039406788 -0.03225187 -0.011539775 -0.004202946 -0.027637962 -0.08364194 -0.079743944
-0.0057789385 0.010717266 0.032958895 -0.019652236 0.020526404 0.007065461 -0.00902347 -0.03886576
-0.0010627384 -0.011976405 -0.007549611 0.0038440933 -0.0041931546 0.048943795 0.043989327 -0.019949434
-0.046876203 -0.050192382 -0.02790147 -0.0783191 0.031211039 0.014171932 -0.0031157068 -0.0013820555
-0.042070646 -0.06679965 -0.022526274 0.015902938 -0.00856854 0.040384855 -0.00875691 -0.014867708
0.031811316 -0.05095121 -0.06359446 -0.07050242 -0.02204923 -0.04337341 0.029782947 0.035852958
-0.0049470505 0.028463101 -0.043394722 -0.05612436 -0.03386364 0.12185856 0.19090214 0.03611239
-0.059581406 0.019022984 -0.043040644 -0.021255018 -0.042976033 -0.013481035 0.015792668 0.06527841
-0.018125335 -0.038159862 0.014430828 -0.03727598 -0.044710916 -0.0276078 -0.0027015551 0.052388366
00000000: 0c40 3fbd d422 49bd b577 253c b2d0 c43b
00000010: 6f34 c83d f1ad 9d3c dce1 62bd f4cc b53b
00000020: e7d3 a6bd 5310 edbc f684 f6bc 311c 79bb
00000030: 07ec 4fbd b1f6 c4bd b8e5 803c de02 e63c
00000040: 8f3b 5dbd 6828 993c 80c8 d93b b45a 3ebd
00000050: e131 b5bc d3a4 4bbd b09d 6cbd 5761 84bd
00000060: d137 8c3c 7de7 2d3d de1e 1bbd 16e7 12bd
00000070: 92f0 8abd b9f5 8fbc b87d 663d 0508 873d
00000080: 9f5b 2a3d 2349 5abc d324 743a 4fa7 fabc
00000090: af8b a9bb 5b1f 90bd 4471 ae39 f683 073d
000000a0: 85a7 b93c 4bf8 b23c 9327 d0bc 686c 823b
000000b0: 72c2 0bbd 154b 5dbd 825b 3bbd 581b 37bd
000000c0: e79e 0fbd d2e4 75bd 9114 9abd f47c ac3c
000000d0: c89c 28bd 5842 90bd a702 023b a2fb 05bd
000000e0: d7cf afbc dabb 8cbd 4544 6cbd 0e64 2c3c
000000f0: fe0c 05bd aa6e 113d b31a 893c d12a 99bb
00000100: c0c0 d0bb 4bd8 82bc a0cd 9d3c 2772 96bc
00000110: 961a fdbb d2c4 973d c748 433d f504 c63c
00000120: 28be 5ebd 8980 66bd b202 18bd 1f0c 84bd
00000130: 5205 2fbd 8e85 ce3c c5d6 dd3a ad40 c23d
00000140: e4e4 36bc 51dc a53c 0642 c73c f0de d43b
00000150: 91ed e83a 36ec 70bd 824b 40bd 3cf0 543d
00000160: 53f7 573d 6a53 3b3d 4b31 29bc 85ec 14bd
00000170: 3fca 14bc 7149 c63c d598 f43d dbda cbbc
00000180: 5096 5ebb f7bd 12bc fefe 40bd 6b1a b2bc
00000190: 7ff9 53bd 8d2f 09bc ac9a ae3c 3d1d a13c
000001a0: 14ab cc3a 754b a5bd 4b9d 11bd aa90 52bd
000001b0: 8995 40bd 4da1 b9bd e587 23bd 7383 103d
000001c0: 46a4 043e 78b1 e7bc d526 5cbd c6f7 c9bd
000001d0: 72bc 4abc b35b 3ebd 1106 86bc 08d4 24bd
000001e0: c3eb a2bb dd9b bfbd 0479 3ebd bb1c 9fbd
000001f0: 5e5d 28bd 651e 813d 5547 47bd 4d8e 7abd
00000200: d669 31bc f5b0 33bd 0ffa d7bc dd09 3ebd
00000210: bb93 3ebd 4657 6bbd 7a4b 54bd 976e 39bc
00000220: 38c3 dabc 6402 28bd 0457 b3bc 4b20 68bd
00000230: 1db4 023d 19b5 acbc 4991 74bc c53c 903c
00000240: d9fb febc 643e b9bd f461 84bc 00a6 17bd
00000250: 2d40 fbbc a2ac 5cbc b35b b2bc 69dd 24bd
00000260: 95d4 21bd 2b98 fcbc 0021 dbbc 0195 4cbc
00000270: 8b97 613c 9caa 0ebd 2cc9 f2bc a363 043e
00000280: 0dfe 00bc d294 4bbd 8ac4 4a3c e430 3bbc
00000290: 680c bd3c c5cd 82bc 65b9 a4bd 004c 53bd
000002a0: 4040 b1bc 39e4 bdbc 895a 64bd 62c0 96bd
000002b0: 7581 8ebd 2043 ebbb afc7 1fbd e105 0bbc
000002c0: 4f4c 40bd 562f 83bd dc3f 2fbd edfc 8abd
000002d0: ec2b 1ebc 3e7a 4cbd 689c ab3c 7277 103d
000002e0: e758 ce3d 0369 213d 891a 04bd 5311 3dbc
000002f0: deb8 89bb 0269 e2bc 774c abbd cb50 a3bd
00000300: 405d bdbb 7997 2f3c e8ff 063d bafd a0bc
00000310: fd26 a83c 6285 e73b 2dd7 13bc b431 1fbd
00000320: 954b 8bba af38 44bc ba62 f7bb 2fed 7b3b
00000330: bb66 89bb 4a79 483d 272e 343d ff6c a3bc
00000340: 4301 40bd 8796 4dbd a091 e4bc c465 a0bd
00000350: 4bae ff3c 6431 683c e330 4cbb 1626 b5ba
00000360: 4552 2cbd 41ce 88bd 0589 b8bc e146 823c
00000370: 1063 0cbc 976a 253d 2579 0fbc b097 73bc
00000380: 954c 023d 37b2 50bd d03d 82bd 9363 90bd
00000390: 96a0 b4bc 51a8 31bd 5efb f33c 8dda 123d
000003a0: de1a a2bb 732b e93c aabe 31bd a8e2 65bd
000003b0: 9ab4 0abd fb90 f93d da7b 433e 96ea 133d
000003c0: a20b 74bd 17d6 9b3c 634b 30bd 011f aebc
000003d0: a307 30bd 8fdf 5cbc a05f 813c b0b0 853d
000003e0: 957b 94bc 844d 1cbd 486f 6c3c b3ae 18bd
000003f0: cb22 37bd c129 e2bc 930c 31bb 2f95 563d

conv2Dblock.15.module.bias f4 [128]
0.011699222 0.00887325 -0.00847277 0.008995204 -0.006327489 0.013185205 -0.0063303565 0.009612597
0.0075723995 0.013625583 -0.0012291411 -0.0077016572 0.0026989921 0.006487967 0.006227407 0.0055618784
0.008673894 -0.013092059 0.00791528 -0.006528813 -0.006177628 -0.009352443 0.009965761 0.011515971
-0.008518692 0.012682074 0.008088687 -0.012058707 0.0020322923 0.012587899 -0.00076407066 -0.008000555
0.008545326 -0.006237246 0.0029572682 0.0087039 0.009857393 0.0065949545 -0.007557619 -0.0053013735
0.01298641 0.0010587513 -0.007936722 0.0081337085 0.002251645 -0.008415505 0.0018567413 0.011359516
-0.003818521 0.008735939 0.0054793525 -0.0010247565 0.006905545 0.0062786317 -0.0016166851 -0.0118301865
-0.010697972 0.0056570065 0.012930738 0.011981467 -0.001764004 0.004408177 0.0046451823 -0.0059091514
-0.008944572 -0.009341019 0.002505093 -0.012693512 0.0062609604 0.0058888444 -0.0053490745 -0.013648895
0.002974721 -0.00265806 -0.01159572 0.0042267027 -0.0026334093 0.014455908 0.007285435 0.0019265355
-0.0016498468 -1.3243263e-05 0.01304063 0.008198837 0.0030375482 -0.005738947 -0.013201627 -0.0036577312
0.0012632555 0.0027152891 0.011261856 -0.008228528 -0.011400755 -0.010779865 0.011035277 -0.009931466
0.0026143137 0.012293819 -0.0049237963 0.006167887 0.0049251984 0.006688336 0.005538954 0.0032499102
-0.0133134695 0.0013160357 0.0068551623 0.012881077 0.0028385918 0.0034543371 0.0066574784 -0.013818507
-0.013427136 -0.003519189 0.004673246 0.009068416 0.000105331215 -0.007194304 0.009208885 0.007903968
0.008040535 -0.0049654995 0.007000819 0.006772344 -0.010381199 -0.0030067705 -0.0048553916 0.0059824875
00000000: 18ae 3f3c 1c61 113c 60d1 0abc 9f60 133c
00000010: d356 cfbb c206 583c e16e cfbb 277e 1d3c
00000020: e421 f83b d63d 5f3c 221b a1ba 2f5e fcbb
00000030: 93e1 303b 0399 d43b 470f cc3b 6b40 b63b
00000040: f31c 0e3c 1380 56bc 17af 013c a7ef d5bb
00000050: b36d cabb fd3a 19bc 6e47 233c 7cad 3c3c
00000060: fc91 0bbc 79c8 4f3c 6a86 043c e291 45bc
00000070: 3530 053b 7a3d 4e3c ea4b 48ba c314 03bc
00000080: b201 0c3c d061 ccbb bace 413b cd9a 0e3c
00000090: e780 213c 7d1a d83b e7a5 f7bb 25b7 adbb
000000a0: f4c4 543c ccc5 8a3a 0609 02bc 3f43 053c
000000b0: 5690 133b 30e1 09bc e65d f33a 431d 3a3c
000000c0: 2740 7abb 2f21 0f3c 248c b33b 1f51 86ba
000000d0: e947 e23b fbbc cd3b f3e6 d3ba 66d3 41bc
000000e0: 8c46 2fbc 695e b93b 72db 533c ea4d 443c
000000f0: 2736 e7ba 7872 903b 9d36 983b 8ea1 c1bb
00000100: 418c 12bc 130b 19bc 7d2c 243b 73f8 4fbc
00000110: be28 cd3b 35f7 c03b 4a47 afbb 9d9f 5fbc
00000120: 89f3 423b d932 2ebb fafb 3dbc 2780 8a3b
00000130: 4795 2cbb 79d8 6c3c a9ba ee3b ce83 fc3a
00000140: ac3f d8ba 622f 5eb7 5ea8 553c 6a54 063c
00000150: 9a11 473b c70d bcbb a34b 58bc 8cb6 6fbb
00000160: d293 a53a fef2 313b a683 383c f3d0 06bc
00000170: 3bca 3abc 089e 30bc 4ecd 343c 96b7 22bc
00000180: e854 2b3b 046c 493c cc57 a1bb fc1b ca3b
00000190: 8f63 a13b d429 db3b 1d80 b53b 72fc 543b
000001a0: bd20 5abc d57e ac3a 45a1 e03b 270b 533c
000001b0: ab07 3a3b 2962 623b fa26 da3b 0567 62bc
000001c0: 7dfd 5bbc 32a2 66bb 0722 993b b293 143c
000001d0: 44e5 dc38 32be ebbb dde0 163c a57f 013c
000001e0: 73bc 033c a1b5 a2bb 2067 e53b 8aea dd3b
000001f0: e815 2abc 3d0d 45bb fa19 9fbb be08 c43b

conv2Dblock.16.module.weight f4 [128]
0.5849697 0.5681927 0.48157588 0.4861931 0.49529558 0.55368435 0.48271167 0.4700943
0.5136799 0.5341259 0.51346326 0.5195025 0.55540377 0.54530287 0.5060482 0.5576906
0.504865 0.52305293 0.47465113 0.48056304 0.49111867 0.55399483 0.5208211 0.51325864
0.4852369 0.5143875 0.48321998 0.5519101 0.4766302 0.47504556 0.526654 0.52248937
0.50604886 0.48694918 0.5167341 0.41356447 0.4562275 0.5546378 0.53852326 0.53376853
0.4358354 0.52048904 0.533081 0.5956481 0.49529666 0.49483994 0.5503855 0.47970256
0.5078946 0.44684032 0.5090797 0.4439815 0.48753875 0.5091058 0.48276997 0.45023525
0.50952756 0.5556703 0.55088407 0.5543772 0.43891543 0.46818042 0.50401 0.4684871
0.5708412 0.50652856 0.46263888 0.5151136 0.5191923 0.49852815 0.5086216 0.5421492
0.521665 0.52121556 0.45852906 0.5023045 0.53166944 0.48423636 0.5554442 0.5548188
0.51085 0.51998836 0.4765076 0.54805684 0.5300204 0.5314751 0.56677485 0.4896344
0.48161227 0.5118146 0.46269593 0.46692193 0.49478644 0.53328675 0.4856679 0.48426273
0.503637 0.4990268 0.54757524 0.5581579 0.49172547 0.48322827 0.562735 0.5471757
0.54750425 0.45028603 0.59981215 0.50357753 0.57239884 0.49677208 0.49755195 0.47940418
0.4648435 0.4708696 0.625697 0.53667814 0.5279251 0.52085733 0.49146527 0.5280899
0.49160478 0.4813216 0.5388649 0.51722336 0.5075426 0.5361148 0.47448233 0.50565416
00000000: 93c0 153f 1475 113f 1d91 f63e 4dee f83e
00000010: 6297 fd3e 42be 0d3f fc25 f73e 33b0 f03e
00000020: 8780 033f 7abc 083f 5472 033f 1efe 043f
00000030: f12e 0e3f f898 0b3f 608c 013f d0c4 0e3f
00000040: d53e 013f cce6 053f 7905 f33e 5c0c f63e
00000050: e873 fb3e 9bd2 0d3f 8854 053f eb64 033f
00000060: f970 f83e e6ae 033f 9c68 f73e fb49 0d3f
00000070: e008 f43e 2c39 f33e ccd2 063f ddc1 053f
00000080: 6b8c 013f 6751 f93e b048 043f b9be d33e
00000090: a796 e93e befc 0d3f a9dc 093f 0ea5 083f
000000a0: d125 df3e c53e 053f ff77 083f 657c 183f
000000b0: 8697 fd3e a95b fd3e 10e6 0c3f 939b f53e
000000c0: 6105 023f 41c8 e43e 0c53 023f 8b51 e33e
000000d0: ae9e f93e c254 023f a02d f73e 3c85 e63e
000000e0: 6670 023f 6940 0e3f bd06 0d3f aaeb 0d3f
000000f0: 86b9 e03e 58b5 ef3e cd06 013f 8bdd ef3e
00000100: a622 123f dbab 013f 01df ec3e 7cde 033f
00000110: c9e9 043f 153f ff3e 0635 023f 4aca 0a3f
00000120: d68b 053f 626e 053f 52c4 ea3e 0797 003f
00000130: 7d1b 083f d4ed f73e 9731 0e3f 9b08 0e3f
00000140: 11c7 023f f51d 053f cef8 f33e 744d 0c3f
00000150: 6baf 073f c10e 083f 2818 113f 5cb1 fa3e
00000160: e295 f63e 4806 033f 7be6 ec3e 6410 ef3e
00000170: a654 fd3e 7b85 083f 77a9 f83e 49f1 f73e
00000180: 5bee 003f 7180 ff3e e42d 0c3f 70e3 0e3f
00000190: 71c3 fb3e b269 f73e 670f 103f b513 0c3f
000001a0: 3d29 0c3f e48b e63e 4a8d 193f 75ea 003f
000001b0: bb88 123f e958 fe3e 21bf fe3e 7774 f53e
000001c0: f8ff ed3e d215 f13e ae2d 203f bd63 093f
000001d0: 1926 073f e856 053f 56a1 fb3e e630 073f
000001e0: 9fb3 fb3e c96f f63e 0df3 093f c068 043f
000001f0: 50ee 013f d23e 093f 59ef f23e 8d72 013f

conv2Dblock.16.module.bias f4 [128]
-0.7380214 -0.49971008 -0.77976936 -0.6893735 -0.5689118 -0.65026647 -0.5868295 -0.62652963
-0.49378008 -0.4621499 -0.69200575 -0.5723499 -0.5795554 -0.76959425 -0.39877915 -0.7989557
-0.7979218 -0.71047753 -0.6191936 -0.45256272 -0.6529538 -0.62956023 -0.48491728 -0.6220816
-0.6394545 -0.65974766 -0.59611386 -0.6468413 -0.7822525 -0.7299783 -0.59081054 -0.6143003
-0.49710277 -0.58618784 -0.70152193 -0.6165484 -0.6129273 -0.7088329 -0.6327484 -0.7405907
-0.6233181 -0.7343793 -0.6021098 -0.38265657 -0.6611131 -0.63642526 -0.6240637 -0.6156124
-0.66241825 -0.6354696 -0.63347673 -0.7112754 -0.6583068 -0.6887376 -0.727864 -0.6479167
-0.6967952 -0.56243354 -0.6509902 -0.3684498 -0.6080489 -0.5401428 -0.7698335 -0.55578756
-0.7034321 -0.451575 -0.58630306 -0.6124599 -0.79516816 -0.5613965 -0.8132812 -0.51949066
-0.58161515 -0.7379786 -0.5381939 -0.7579385 -0.6446795 -0.5285364 -0.7312739 -0.49587056
-0.48225746 -0.50330555 -0.660761 -0.63158494 -0.7193561 -0.8240497 -0.27149448 -0.56336457
-0.6851303 -0.54519314 -0.6753277 -0.5599994 -0.5524345 -0.42945126 -0.697469 -0.6976402
-0.5849829 -0.41265383 -0.5534854 -0.702796 -0.6541299 -0.4752059 -0.38779968 -0.76347697
-0.6645183 -0.48871917 -0.43007442 -0.58594483 -0.6910033 -0.5370332 -0.6139328 -0.66800684
-0.5631749 -0.7154275 -0.4584176 -0.651775 -0.529391 -0.7185154 -0.63008296 -0.46773216
-0.55179703 -0.58239573 -0.56570965 -0.68626183 -0.55605775 -0.6148766 -0.62483084 -0.7035241
00000000: f8ee 3cbf 00da ffbe f79e 47bf c87a 30bf
00000010: 34a4 11bf dd77 26bf 753a 16bf 3f64 20bf
00000020: bed0 fcbe e99e ecbe 4a27 31bf 8685 12bf
00000030: be5d 14bf 2104 45bf c82c ccbe 5c88 4cbf
00000040: 9a44 4cbf dbe1 35bf 7983 1ebf 4db6 e7be
00000050: fb27 27bf dc2a 21bf 1447 f8be bd40 1fbf
00000060: 4ab3 23bf 39e5 28bf eb9a 18bf 6497 25bf
00000070: b341 48bf dcdf 3abf 5c3f 17bf c942 1dbf
00000080: 4184 febe 6810 16bf f196 33bf 1ed6 1dbf
00000090: cee8 1cbf 1376 35bf cdfb 21bf 5a97 3dbf
000000a0: c691 1fbf 4800 3cbf de23 1abf 90eb c3be
000000b0: b53e 29bf c4ec 22bf a3c2 1fbf c698 1dbf
000000c0: 3e94 29bf 23ae 22bf 882b 22bf 2516 36bf
000000d0: cb86 28bf 1b51 30bf 4c55 3abf dedd 25bf
000000e0: 2c61 32bf a5fb 0fbf 4ba7 26bf 74a5 bcbe
000000f0: 18a9 1bbf cc46 0abf cf13 45bf 1848 0ebf
00000100: 2014 34bf d734 e7be f517 16bf 2cca 1cbf
00000110: 2490 4bbf aeb7 0fbf 3233 50bf 57fd 04bf
00000120: bbe4 14bf 2aec 3cbf 13c7 09bf 4208 42bf
00000130: b709 25bf 294e 07bf c434 3bbf bfe2 fdbe
00000140: 73ea f6be a2d8 00bf a227 29bf 8daf 21bf
00000150: b927 38bf ecf4 52bf 5301 8bbe a938 10bf
00000160: b364 2fbf c791 0bbf 47e2 2cbf 1f5c 0fbf
00000170: 596c 0dbf 09e1 dbbe 548d 32bf 8c98 32bf
00000180: 70c1 15bf 5d47 d3be 38b1 0dbf 70ea 33bf
00000190: 0f75 27bf 304e f3be ae8d c6be 3a73 43bf
000001a0: df1d 2abf 6639 fabe b732 dcbe 7b00 16bf
000001b0: 98e5 30bf 027b 09bf b32a 1dbf 7f02 2bbf
000001c0: 3b2c 10bf 4226 37bf b6b5 eabe bada 26bf
000001d0: 2b86 07bf a0f0 37bf 1e4d 21bf 977a efbe
000001e0: 9242 0dbf e317 15bf 59d2 10bf dbae 2fbf
000001f0: cd59 0ebf 8e68 1dbf eaf4 1fbf 281a 34bf

conv2Dblock.16.module.running_mean f4 [128]
-0.2860672 0.0016639737 0.079804026 -0.33668563 -0.26114175 -0.27971998 -0.20534183 -0.06448503
-0.05654279 0.011284938 -0.17604688 -0.5666198 -0.36102498 0.01491542 -0.13670136 -0.0923694
-0.004258105 -0.23800579 -0.15349354 -0.07731942 -0.40004733 -0.37128747 -0.19568723 -0.35356694
-0.23930702 -0.11739949 -0.31512132 -0.098152235 -0.095919326 -0.020460842 0.017142981 -0.36086717
0.03467982 -0.12396593 -0.14426816 0.16081455 -0.2544235 -0.058172535 -0.34429258 -0.39760748
-0.076379396 -0.099982835 -0.2460974 -0.21003605 0.082055695 -0.3669167 -0.13519348 -0.049499087
0.14839478 -0.27299833 -0.27396637 -0.038405698 -0.2658709 -0.12945873 0.010387456 -0.060918923
-0.20129962 -0.09785863 -0.06915433 -0.21103993 -0.124865465 0.07367901 -0.0879816 0.037836805
-0.36544225 -0.2326351 -0.22770685 -0.2954139 -0.08178931 -0.068900004 -0.091322474 -0.21458977
-0.3277974 -0.30551696 -0.078283004 -0.21219756 -0.17368978 -0.2549594 -0.02288629 -0.14432822
-0.06727725 -0.13976388 -0.038301196 0.09028049 -0.19385023 -0.1921395 -0.21509351 -0.089806795
-0.06827569 -0.102406725 -0.23074836 0.049786918 -0.29731965 -0.326993 0.14547484 -0.1372991
-0.39086926 -0.2717703 -0.13974777 -0.15646465 -0.2917618 0.06696934 -0.1492156 -0.0787064
-0.28217444 -0.14299975 -0.30349976 -0.20252852 -0.29767078 -0.20610194 -0.16871612 -0.043964975
0.09257331 -0.090376444 -0.2141131 -0.36452076 -0.015936892 -0.098181956 -0.15900847 -0.017915746
-0.08155416 -0.370521 -0.07616969 -0.15419944 -0.34972242 -0.28900313 -0.055379186 -0.21166046
00000000: 6677 92be b119 da3a 4b70 a33d 0f62 acbe
00000010: 5fb4 85be 7537 8fbe 2145 52be ba10 84bd
00000020: 6a99 67bd 76e4 383c a245 34be ff0d 11bf
00000030: 44d8 b8be ce5f 743c 71fb 0bbe 2b2c bdbd
00000040: 9387 8bbb cab7 73be 692d 1dbe a559 9ebd
00000050: 01d3 ccbe 6419 bebe 3c62 48be ba06 b5be
00000060: e60c 75be 256f f0bd 9557 a1be 0a04 c9bd
00000070: 5a71 c4bd 7f9d a7bc 706f 8c3c 95c3 b8be
00000080: 6d0c 0e3d d9e1 fdbd 08bb 13be 92ac 243e
00000090: cc43 82be 5346 6ebd 1e47 b0be 3593 cbbe
000000a0: cd6c 9cbd cdc3 ccbd f500 7cbe b113 57be
000000b0: d10c a83d 81dc bbbe 2970 0abe 8ebf 4abd
000000c0: cdf4 173e 70c6 8bbe 5245 8cbe 4b4f 1dbd
000000d0: 3b20 88be d490 04be 2630 2a3c 1f86 79bd
000000e0: 7d21 4ebe 1b6a c8bd c9a0 8dbd da1a 58be
000000f0: 77b9 ffbd 05e5 963d b22f b4bd c4fa 1a3d
00000100: 3f1b bbbe e537 6ebe fc2b 69be 7e40 97be
00000110: 2781 a7bd 721b 8dbd 4707 bbbd 6cbd 5bbe
00000120: 10d5 a7be b86c 9cbe d752 a0bd 514a 59be
00000130: bcdb 31be 0a8a 82be 077c bbbc c7ca 13be
00000140: a8c8 89bd 431e 0fbe b7e1 1cbd fae4 b83d
00000150: ad80 46be 38c0 44be 7941 5cbe a0ec b7bd
00000160: 20d4 8bbd 9eba d1bd 4c49 6cbe 5eed 4b3d
00000170: 483a 98be a06b a7be 5bf7 143e 2398 0cbe
00000180: 0420 c8be 7a25 8bbe 0a1a 0fbe 4538 20be
00000190: cd61 95be 3927 893d f9cb 18be d230 a1bd
000001a0: 2b79 90be 876e 12be 5264 9bbe a363 4fbe
000001b0: 4e68 98be 630c 53be ebc3 2cbe 9e14 34bd
000001c0: 1397 bd3d 4917 b9bd 7740 5bbe 77a2 babe
000001d0: 168e 82bc 9f13 c9bd 1ed3 22be 0bc4 92bc
000001e0: de05 a7bd eeb4 bdbe dbfe 9bbd 75e6 1dbe
000001f0: d10e b3be 38f8 93be 49d5 62bd 85bd 58be
